model.pt (torch, 9886 bytes, 2 tensors)

weight f4 [32, 32]
0	0x3cb96f92	0.022636209
1	0x3dd2114b	0.102572046
2	0xbe2f36ca	-0.17110744
3	0xbd64e65c	-0.05588375
4	0xbe3317df	-0.17489575
5	0x3d00ed07	0.031476047
6	0x3d76b201	0.06022835
7	0xbe24e22d	-0.16101904
8	0x3d3eb05a	0.0465549
9	0xbd72a69a	-0.059240915
10	0xbd077177	-0.033067193
11	0xbe0754cd	-0.13215943
12	0xbca70f0e	-0.02039292
13	0x3da93025	0.08261136
14	0xbdc625a7	-0.0967515
15	0xbd7b1b41	-0.06130529
16	0xbdd663b7	-0.10468238
17	0xbda68a5d	-0.081318595
18	0x3e173cd5	0.147693
19	0x3df706e9	0.12061865
20	0xbda38e1a	-0.07986088
21	0x3e32f734	0.17477113
22	0x3d87e06b	0.06634601
23	0x3d6a3dae	0.05718773
24	0xbe0a8168	-0.13525927
25	0xbd33eb69	-0.043925676
26	0x3e1fe37e	0.15614125
27	0x3def276d	0.11677442
28	0x3dbabae7	0.0911768
29	0xbdae5f02	-0.08514215
30	0xbd33ad02	-0.043866165
31	0x3d9589bc	0.07301661
32	0x3d74d685	0.059774894
33	0xbd5dd0bd	-0.054154146
34	0xbdb7fe9d	-0.089841105
35	0xbe121734	-0.14266664
36	0xbe1034d1	-0.14082648
37	0xbd95b179	-0.07309241
38	0x3dbef5b2	0.093242064
39	0xbdb010a5	-0.08596925
40	0x3d6bae7b	0.057539444
41	0xbdfdf426	-0.12400083
42	0xbbb668cd	-0.0055666924
43	0xbdd82c13	-0.105552815
44	0xbda7395f	-0.081652395
45	0x3dd9edc0	0.1064105
46	0x3d3fb1ce	0.046800427
47	0x3e1fb93d	0.15598007
48	0x3d38b0bd	0.045090426
49	0x3b913f08	0.0044325627
50	0x3e12d6cf	0.14339755
51	0xbdfdc7e3	-0.12391641
52	0x3dd12e64	0.102139264
53	0xb9fa1def	-0.00047706018
54	0xbba8a5d1	-0.00514672
55	0xbde08817	-0.10963457
56	0xba518bf3	-0.00079935713
57	0xbde8cf47	-0.1136766
58	0x3dd0a89d	0.101884104
59	0xbdf06ffd	-0.1174011
60	0xbc944047	-0.018097056
61	0x3e2b8d54	0.16753131
62	0xbc74e679	-0.014947527
63	0xbe11308b	-0.14178674
64	0x3d3617c5	0.044456262
65	0x3d3a6232	0.045503803
66	0xbdb3d3d0	-0.087806344
67	0xbe1a77cd	-0.15084763
68	0xbe34cf56	-0.17657217
69	0xbdc38608	-0.09547049
70	0x3b976d02	0.004621149
71	0xbe224d81	-0.15849878
72	0xbe179e4b	-0.14806478
73	0x3d5ecfbd	0.054397333
74	0xbe121edc	-0.14269584
75	0x3a9183cc	0.0011101901
76	0x3d45eb3a	0.048320033
77	0x3e20ad51	0.15691115
78	0xb99b4f33	-0.00029622912
79	0x3d32c1f0	0.043641984
80	0x3e0bd23a	0.13654414
81	0x3d3a3b42	0.04546667
82	0x3e213550	0.15742993
83	0xbcd972a0	-0.026543915
84	0x3e323b02	0.17405322
85	0xbde15b0a	-0.110036924
86	0x3dfb09c6	0.122577235
87	0x3cde4f01	0.027137281
88	0xbbea7fc6	-0.007156345
89	0x3e2d4f63	0.16924815
90	0x3daf19c9	0.0854984
91	0x3cdf02eb	0.027223071
92	0xbd28e9d0	-0.041238606
93	0x3e1ac5e3	0.1511455
94	0x3c34d4c7	0.011037058
95	0x3d2798f6	0.04091736
96	0xbc40052e	-0.011719985
97	0xbd873fa0	-0.066039324
98	0xbdc11115	-0.09427086
99	0x3dc64cf1	0.09682644
100	0x3d023f5b	0.0317987
101	0x3ce9f8b7	0.02856098
102	0x3c0bd3b0	0.008534357
103	0xbd839823	-0.06425502
104	0xbbea897f	-0.007157504
105	0xbdb610d2	-0.08889927
106	0x3c93d3bc	0.018045299
107	0x3da62651	0.08112777
108	0xbe2ce0db	-0.1688265
109	0x3e1bad8a	0.15202919
110	0xbd55a73d	-0.052161444
111	0x3e108c17	0.1411594
112	0x3e148b72	0.14506319
113	0x3d9ebfb9	0.07751412
114	0x3e214119	0.15747489
115	0xbe1ddd6f	-0.15416501
116	0xbe2519b3	-0.16123085
117	0x3c29ddd4	0.010367829
118	0xbdb2ec7d	-0.08736513
119	0xbdaf239b	-0.08551713
120	0xbc98263a	-0.018572915
121	0xbdf081bb	-0.11743494
122	0xbbc4e8c2	-0.006009192
123	0xbdc37313	-0.09543433
124	0x3d343f28	0.044005543
125	0x3cca1843	0.024669772
126	0xbdf2971c	-0.11845228
127	0xbda0b15f	-0.07846331
128	0xbc39f93c	-0.011350926
129	0x3dccbdf8	0.09997171
130	0x3e233029	0.1593634
131	0x3d85b6af	0.06528985
132	0x3bc1b3fc	0.0059113484
133	0xbbd20b0d	-0.0064100088
134	0x3e279599	0.1636566
135	0xbdce801f	-0.10083031
136	0xbddae162	-0.106875196
137	0x3d10c47b	0.03534363
138	0xbdf4a20a	-0.11944969
139	0x3e33c2ff	0.17554854
140	0xbdc9c6de	-0.09852384
141	0xbdc3fc2a	-0.09569581
142	0x3ddb0216	0.10693757
143	0xbd086daf	-0.033307727
144	0x3e2d8aed	0.16947527
145	0xbd9d0308	-0.07666594
146	0x3db399c3	0.08769562
147	0x3ce227c8	0.02760686
148	0x3d35994f	0.04433566
149	0xbe32b79f	-0.17452858
150	0xbcd4f0c3	-0.02599371
151	0xbc5d21ff	-0.013496875
152	0xbdccebb0	-0.10005891
153	0x3dcde765	0.10053901
154	0x3e284890	0.1643393
155	0x3e30c48f	0.17262481
156	0x3e041d9a	0.12901917
157	0xbd3b4582	-0.045720585
158	0xbdbe913e	-0.093050465
159	0x3ddbe99c	0.10737917
160	0x3e11e0c3	0.14245896
161	0xbd84cf7c	-0.06484887
162	0x3deb8c19	0.11501331
163	0xbdb25d49	-0.08709199
164	0xbd577720	-0.05260384
165	0x3e113465	0.14180143
166	0x3e2d503b	0.16925137
167	0xbe1c96f0	-0.15291953
168	0x3dc6f226	0.09714155
169	0x3e1b726d	0.15180369
170	0x3d0decb1	0.034649555
171	0x3d8f5549	0.06998689
172	0x3da02815	0.07820145
173	0x3bdbd2ea	0.0067084925
174	0x3dda9611	0.10673154
175	0xbdf02e07	-0.11727529
176	0xbc9172b2	-0.017754886
177	0xbd648d81	-0.05579901
178	0x3dbd056a	0.09229548
179	0xbdf4a6d0	-0.119458795
180	0x3da4007d	0.08007906
181	0xbd9b7138	-0.07589954
182	0x3e05cb49	0.13065828
183	0xbc0aaf09	-0.008464583
184	0x3cd04bb8	0.02542673
185	0x3d8a50de	0.067537054
186	0x3d7ae523	0.061253678
187	0x3da7648c	0.08173475
188	0x3de27248	0.11056954
189	0xbd32fd3f	-0.043698546
190	0xbd91ed80	-0.07125378
191	0x3d78f90f	0.060784396
192	0xbe314566	-0.1731163
193	0x3d257960	0.040398955
194	0x3d9f2901	0.07771493
195	0x3e10e4d2	0.14149788
196	0x3e089e49	0.13341631
197	0xbdc4fd90	-0.09618676
198	0xbe0452f3	-0.12922268
199	0xbd3bf80d	-0.045890857
200	0xbe15e9a2	-0.14639905
201	0x3c9f4750	0.019443184
202	0x3dd3cdd8	0.10341996
203	0x3dcc660b	0.09980401
204	0xbe2f7e4b	-0.1713802
205	0x3d92ddbb	0.07171198
206	0xbdb1a6dd	-0.08674405
207	0xbd9e10f5	-0.07718078
208	0xbe0090e9	-0.12555279
209	0xbd52efa5	-0.051498074
210	0xbd925ec2	-0.0714698
211	0xbdb733dd	-0.08945439
212	0x3e103b2d	0.14085074
213	0xbc861181	-0.016365768
214	0x3d853519	0.06504268
215	0xbd202afa	-0.039103486
216	0x3de21a12	0.11040129
217	0xbe015ec7	-0.12633811
218	0xbd370359	-0.044680927
219	0xbdd6fc98	-0.10497397
220	0xbdd48f5e	-0.103789076
221	0xbd71ba3a	-0.05901549
222	0xbe2d0d4e	-0.16899607
223	0xbb2a13bf	-0.002595171
224	0xbe2e9ee7	-0.17052804
225	0x3ca90bb0	0.020635456
226	0x3d16a715	0.036780436
227	0x3df05dab	0.11736616
228	0xbe0d3ded	-0.13793154
229	0xbd099672	-0.03359074
230	0xbce073ac	-0.027398907
231	0xbe2100d8	-0.15722978
232	0x3dd028bd	0.1016402
233	0x3dbefdd1	0.093257554
234	0x3d99d5b7	0.07511466
235	0xbcad5693	-0.021159446
236	0x3ca2b568	0.019861892
237	0x3dda9d5e	0.10674547
238	0xbda0307b	-0.07821747
239	0x3d892a94	0.06697574
240	0x3d88fd80	0.06688976
241	0xbe28d54a	-0.16487613
242	0xbda6ec76	-0.0815057
243	0xbdd30e48	-0.10305458
244	0xbe083075	-0.13299735
245	0x3e0a6cea	0.1351811
246	0xbd7a14b2	-0.061054893
247	0xbd57e34f	-0.052707013
248	0xbe252de7	-0.16130792
249	0x3e1da094	0.15393287
250	0xbcbe63f1	-0.023241015
251	0x3e114be5	0.14189108
252	0x3e1051c0	0.14093685
253	0xbda0fc4b	-0.07860621
254	0x3ba52ca2	0.005040721
255	0x3db6c08a	0.08923443

bias f4 [32]
0	0xbb0f9e5f	-0.0021914465
1	0x3c77782c	0.015104335
2	0xbddc298c	-0.10750112
3	0x3cb589c1	0.022160413
4	0xbdd55ad7	-0.10417717
5	0x3dc10877	0.09425443
6	0x3e20be6d	0.15697642
7	0xbd323276	-0.043505155
8	0xbceb2548	-0.0287043
9	0x3d664712	0.05622012
10	0xbae58016	-0.0017509486
11	0xbc358a54	-0.011080343
12	0xbd4de730	-0.050269306
13	0x3e0a9836	0.13534626
14	0xbd1568ff	-0.036477085
15	0x3e21a112	0.157841
16	0x3dc997e1	0.09843422
17	0x3e029d38	0.12755287
18	0x3cf5d54c	0.030008934
19	0xbd6846d7	-0.056708183
20	0xbdcfa1b9	-0.10138268
21	0x3e22195b	0.15829985
22	0xbe00108f	-0.12506317
23	0x3c31a4f4	0.010842551
24	0xbe0ce4da	-0.13759175
25	0xbe2f1b44	-0.17100245
26	0x3c5808da	0.013185704
27	0xbdb212a2	-0.0869496
28	0xbdff8f8d	-0.12478552
29	0xbdcab4d8	-0.098977745
30	0x3e2d15b5	0.16902812
31	0x3ac1dc4a	0.0014790383
